AImodel/model/CNN30epochs.pt (torch, 808765 bytes, 14 tensors)

conv1.0.weight f4 [8, 3, 5, 5]
0.040317908 -0.07263466 0.07711932 0.05000763 0.021076811 -0.056889296 -0.018830437 0.032347612
0.03448582 -0.045639113 -0.077021405 -0.096235104 -0.07029756 0.0320488 0.067434706 -0.11587319
0.06818541 0.09318841 0.039723076 -0.0057163434 -0.023493731 -0.110834375 0.05126719 0.08732887
-0.06247836 -0.06285213 0.07354384 0.02730036 -0.06845937 -0.01380117 0.01425962 0.07123553
0.035016984 0.11008695 -0.03166255 -0.09929714 -0.106104985 0.10536633 -0.041621447 -0.02949223
-0.019588644 0.03797191 0.098746255 0.10955702 0.08232665 0.022837073 0.06162204 -0.068263456
-0.010297556 -0.071366146 0.017886192 0.027392842 0.098103024 0.10256447 0.065391734 -0.035414815
0.05508055 -0.046792217 0.055257034 -0.025791803 0.076140344 -0.042536207 -0.0386967 0.04825657
0.07220734 -0.12670568 0.031121386 0.025847722 -0.018038623 0.046395678 0.00020976277 -0.045261156
-0.11854219 -0.107462 0.110304855 0.06383519 -0.08296193 0.05082072 -0.056008793 0.023305431
-0.06372998 -0.012992369 -0.0314835 0.08371427 0.09983682 0.007015801 -0.103901744 -0.05088836
0.073693454 -0.04884868 0.10352403 0.103801645 0.09678578 0.032628983 0.10118132 -0.0672689
-0.07216214 -0.014433711 -0.10107024 -0.11619756 -0.06955237 -0.044059854 0.08364632 0.07219018
0.036119495 -0.118367344 0.08236513 -0.043240085 -0.03725717 0.029534733 -0.014649318 -0.037099045
-0.08527952 -0.06773804 0.14455801 0.047673658 0.06715226 0.06668217 -0.042982057 0.12134154
-0.07592358 -0.09499489 0.030667314 -0.07588279 -0.049646717 -0.0018511658 0.031040883 -0.013615927
0.016347153 -0.119627796 -0.13948372 -0.08201986 -0.07293642 0.10836527 0.052439813 -0.11980153
-0.0026248025 -0.021990396 0.12988766 0.12118263 0.062331066 -0.028471515 -0.009278771 -0.075232156
0.11151372 -0.031460535 -0.016775038 0.047141146 0.048430547 0.06759766 -0.105866924 -0.02772971
0.0068297116 -0.13284887 -0.13650334 -0.0060585286 -0.03169154 0.041206583 0.11300924 0.015062783
0.054987527 0.06943501 -0.025304826 -0.04821293 0.020206511 0.039133508 0.034845967 -0.08188017
0.10327221 -0.009011529 -0.048774034 0.11437114 0.057978075 0.031797357 0.09597226 -0.014327926
0.08988433 -0.08267981 -0.06757152 -0.06971997 0.08488659 0.029047891 0.10143413 -0.08093398
0.016964974 0.014697686 0.010838202 0.095430404 0.083762646 -0.059435748 -0.049497873 0.077475615
-0.07112215 0.025396798 0.08291449 0.008577058 0.0009712153 0.066520795 -0.039509345 0.07344782
0.014381579 0.057891026 -0.06767395 0.02327157 -0.13854225 0.027086046 0.12103232 0.017314801
0.019394219 0.010119298 0.13313723 0.13944645 0.061874114 0.043969974 -0.03345427 0.03401242
0.09248544 0.09535284 -0.078908816 -0.12784845 -0.09583074 -0.10572151 -0.075449534 0.0016964241
-0.0053904057 -0.08672425 0.062300496 -0.08383163 -0.15150653 0.035825957 -0.091621555 -0.11541001
-0.037972342 -0.098169185 -0.15196228 0.07814202 0.042099174 0.01552011 0.077208236 -0.050000586
0.088843234 0.08168495 -0.046035957 -0.004535176 -0.03057013 -0.09347978 -0.026148872 0.06945428
-0.10731493 -0.027338296 -0.13175227 -0.050144244 -0.12131327 -0.15746708 -0.16153274 0.07115042
00000000: 6424 253d 7bc1 94bd bcf0 9d3d cdd4 4c3d
00000010: 47a9 ac3c c004 69bd 4a42 9abc ee7e 043d
00000020: 0141 0d3d 14f0 3abd 66bd 9dbd e916 c5bd
00000030: 2bf8 8fbd 9a45 033d 351b 8a3d ec4e edbd
00000040: cba4 8b3d 91d9 be3d aab4 223d 2a50 bbbb
00000050: ed75 c0bc 22fd e2bd 8cfd 513d 7bd9 b23d
00000060: 4fe9 7fbd 9eb8 80bd 279e 963d 01a5 df3c
00000070: 6d34 8cbd 4d1e 62bc 2ea1 693c efe3 913d
00000080: f86d 0f3d 4475 e13d 97b0 01bd 4d5c cbbd
00000090: 924d d9bd 4dca d73d 407b 2abd b099 f1bc
000000a0: 5d78 a0bc 6f88 1b3d 7a3b ca3d 6e5f e03d
000000b0: e09a a83d d014 bb3c 6467 7c3d b6cd 8bbd
000000c0: 15b7 28bc 6a28 92bd 1086 923c f466 e03c
000000d0: 3dea c83d 520d d23d 1aec 853d 200f 11bd
000000e0: 259c 613d 32a9 3fbd 3355 623d 5549 d3bc
000000f0: 78ef 9b3d 723a 2ebd 6e80 1ebd aea8 453d
00000100: 71e1 933d 22bf 01be 47f2 fe3c 9abe d33c
00000110: bcc5 93bc 6509 3e3d c4f3 5b39 c363 39bd
00000120: 3fc6 f2bd 0915 dcbd 83e7 e13d 06bc 823d
00000130: f2e7 a9bd 6329 503d 7a69 65bd 08eb be3c
00000140: dd84 82bd f2dd 54bc d8f4 00bd 6372 ab3d
00000150: 3f77 cc3d cee4 e53b 70ca d4bd 5070 50bd
00000160: 98ec 963d 8e15 48bd 6804 d43d f595 d43d
00000170: 9f37 c63d f8a5 053d 2738 cf3d 47c4 89bd
00000180: bec9 93bd 5f7b 6cbc eafd cebd fdf8 edbd
00000190: 7971 8ebd 1b78 34bd c34e ab3d 72d8 933d
000001a0: 09f2 133d 946a f2bd 0daf a83d 841c 31bd
000001b0: f99a 18bd d3f2 f13c b103 70bc 2bf5 17bd
000001c0: 07a7 aebd 3eba 8abd 0407 143e 7445 433d
000001d0: 2087 893d a990 883d f40d 30bd ea81 f83d
000001e0: d27d 9bbd ae8c c2bd 053a fb3c 7068 9bbd
000001f0: 5b5a 4bbd d1a2 f2ba 7349 fe3c 5615 5fbc
00000200: 77ea 853c 6bff f4bd d2d4 0ebe 07fa a7bd
00000210: b15f 95bd 9cee dd3d 21cb 563d 815a f5bd
00000220: e104 2cbb 3425 b4bc 4501 053e 992e f83d
00000230: dc4e 7f3d 183d e9bc fc05 18bc 5113 9abd
00000240: 4e61 e43d c3dc 00bd ce6b 89bc 1317 413d
00000250: 1c5f 463d a470 8a3d c2d0 d8bd 6b29 e3bc
00000260: c6cb df3b 8909 08be 88c7 0bbe 9f86 c6bb
00000270: fdce 01bd 3cc8 283d 6371 e73d e4c9 763c
00000280: 9a3a 613d f133 8e3d 114c cfbc ec7a 45bd
00000290: 2088 a53c 754a 203d a5ba 0e3d cab0 a7bd
000002a0: 6180 d33d 18a5 13bc 48c7 47bd 6b3b ea3d
000002b0: 6b7a 6d3d f23d 023d 1b8d c43d adbf 6abc
000002c0: 4715 b83d 0854 a9bd f062 8abd 58c9 8ebd
000002d0: 05d9 ad3d d8f5 ed3c b2bc cf3d b7c0 a5bd
000002e0: 21fa 8a3c 90ce 703c b792 313c 0471 c33d
000002f0: c08b ab3d e672 73bd 48be 4abd 89ab 9e3d
00000300: 7da8 91bd f20c d03c 12cf a93d ca86 0c3c
00000310: 2899 7e3a 0e3c 883d 8dd4 21bd d06b 963d
00000320: b7a0 6b3c 241f 6d3d a498 8abd 05a4 be3c
00000330: 05de 0dbe 8ee3 dd3c cbdf f73d c5d7 8d3c
00000340: a0e0 9e3c 69cb 253c 2055 083e 0dcb 0e3e
00000350: b66f 7d3d dc19 343d 5807 09bd 9b50 0b3d
00000360: 0269 bd3d 5a48 c33d f29a a1bd b4ea 02be
00000370: e842 c4bd 8584 d8bd 4985 9abd 8c5a de3a
00000380: 00a2 b0bb 7c9c b1bd ce2e 7f3d ebaf abbd
00000390: 8724 1bbe 3dbe 123d 15a4 bbbd 155c ecbd
000003a0: e388 1bbd ed0c c9bd 009c 1bbe ec08 a03d
000003b0: 2f70 2c3d 0f48 7e3c 5a1f 9e3d 6acd 4cbd
000003c0: 71f3 b53d 704a a73d 3390 3cbd d09b 94bb
000003d0: 366e fabc 5472 bfbd 2936 d6bc 0c3e 8e3d
000003e0: eec7 dbbd 90f4 dfbc 11ea 06be 0d64 4dbd
000003f0: 1773 f8bd 0d3f 21be d768 25be 50b7 913d

conv1.0.bias f4 [8]
0.06781494 -0.05965333 -0.10375525 0.046494003 -0.06434367 -0.02108654 -0.09335984 0.11003332
00000000: 8fe2 8a3d 0d57 74bd a27d d4bd 7f70 3e3d
00000010: 9dc6 83bd aebd acbc 7233 bfbd 2659 e13d

conv1.1.weight f4 [8]
1.0166545 0.9995488 1.0039752 0.994217 0.9972767 1.0033451 0.9821676 1.0015323
00000000: bc21 823f 6ee2 7f3f 4282 803f 0185 7e3f
00000010: 874d 7f3f 9d6d 803f 566f 7b3f 3632 803f

conv1.1.bias f4 [8]
-0.03790893 -0.014985546 -0.04193571 0.0045768125 -0.013256006 -0.0039495463 -0.041942034 -0.02060306
00000000: 6546 1bbd ef85 75bc c7c4 2bbd 16f9 953b
00000010: b82f 59bc 326b 81bb 69cb 2bbd c0c7 a8bc

conv1.1.running_mean f4 [8]
0.002969313 -0.0517065 -0.28900418 0.68557435 0.4875034 0.09369531 -0.37735358 0.27737668
00000000: ce98 423b 32ca 53bd 5bf8 93be cd81 2f3f
00000010: 0c9a f93e 54e3 bf3d 7d34 c1be 5104 8e3e

conv1.1.running_var f4 [8]
0.33135775 0.12889393 0.76059705 6.9667044 4.719408 0.7307124 1.8047389 0.3450734
00000000: b9a7 a93e c5fc 033e 7db6 423f 3eef de40
00000010: 6405 9740 f80f 3b3f af01 e73f 76ad b03e

conv2.0.weight f4 [16, 8, 5, 5]
0.055537913 -0.02711996 0.04939887 -0.047479358 -0.016968125 -0.011277187 0.011987513 0.048145454
0.037168313 -0.04138488 0.03836905 -0.026195705 0.012580987 0.0005800415 0.0049075168 -0.037987888
0.036375497 -0.06719851 0.026237756 -0.078612186 0.062926225 0.022626638 0.006856163 0.011034315
-0.02753933 -0.032592263 -0.043373413 -0.002924552 -0.013153414 -0.06475395 0.015477435 0.006350431
-0.028717693 0.009949567 0.029838694 -0.015903335 0.0476154 0.025169987 -0.028211586 -0.0475944
0.03161158 -0.0322803 0.05418581 -0.041715275 -0.066047646 -0.01660357 -0.03846481 0.042506002
-0.026205063 -0.016751055 0.011367558 0.025269553 0.007591445 -0.015416696 0.03351425 0.058208194
0.048104968 -0.029343057 -0.046396796 -0.06385203 0.054707084 0.07696059 0.012394511 0.046825267
-0.055197056 0.049401574 -0.038870804 0.028570523 -0.056069538 -0.07871846 0.0462627 0.047470357
0.053356525 -0.04386699 -0.041119106 -0.06904415 -0.04960913 0.019676475 -0.010553642 -0.031472947
-0.042578734 -0.06275459 0.020503817 -0.0060595516 0.028094286 -0.061269104 -0.043947473 0.035265945
-0.03360781 -0.033149935 0.052478526 0.023102045 0.028520256 -0.040778466 -0.02657235 -0.04723537
-0.048265513 -0.021484075 -0.06466093 -0.0146884555 -0.072279744 -0.023124518 0.01071495 -0.03257588
0.052885827 -0.013527979 0.044187266 -0.07873034 -0.06195862 0.005184149 -0.0077656815 -0.075800195
0.016853489 -0.022778444 -0.00067952275 -0.036487963 0.055080827 -0.021611298 -0.012152901 0.032356013
0.060041584 -0.062483978 0.040585708 -0.002576073 0.04496199 0.0031069329 -0.0058030766 0.05963949
0.041691635 0.054928586 -0.07735456 -0.06947887 -0.019231439 0.006292552 0.011758878 -0.05734782
0.053211346 -0.032247346 -0.02503336 0.04226283 0.056190547 0.005122512 -0.036870904 -0.03282257
-0.03919923 -0.002470511 0.0024260974 -0.07592714 0.039730214 0.023708332 0.043727107 0.008157585
-0.017889876 -0.050873898 -0.016848482 0.030930439 0.053166017 -0.010745361 -0.005892517 0.047808327
-0.0073597957 -0.022748923 0.052634057 -0.0035768475 -0.050227128 0.05228191 0.006522321 0.011299877
0.022828473 -0.031164518 -0.040563434 0.033499833 0.041356254 0.03679492 0.010760397 -0.0594588
-0.054574803 0.033063404 -0.0042318767 0.0434024 -0.029212426 0.00818321 -0.007975755 -0.07107019
0.06033624 -0.06751008 0.032653347 -0.07420477 -0.030772345 -0.0032545046 -0.009806284 -0.060457803
-0.020247707 0.046336368 -0.04520575 0.00247233 -0.05313373 -0.004768294 0.006685309 -0.048877984
0.04433765 0.026243802 -0.020017706 0.0013721958 -0.09131937 -0.008601632 -0.07860257 -0.037847884
0.012317058 0.009090691 0.081615016 0.027901595 -0.0660095 -0.038686983 0.016573135 0.02541331
-0.032330368 -0.051639423 -0.030394012 -0.05658399 0.08205533 0.0319598 -0.023357807 -0.08912681
-0.05697475 -0.027255848 -0.07157006 -0.01118412 -0.0023166104 -0.051145043 0.05637086 0.032708224
-0.05023265 0.0054966793 0.019439187 0.029094346 0.027999662 0.019894427 0.022222338 -0.045241494
-0.011909297 -0.052076224 -0.012584069 -0.062133033 -0.07156947 -0.032287914 0.050792627 -0.06781208
0.006796502 0.0045744902 0.068920486 0.055855326 -0.025093734 0.03625879 -0.044118732 0.07069529
00000000: b97b 633d ae2a debc 7856 4a3d b779 42bd
00000010: bd00 8bbc f3c3 38bc 4667 443c 2b34 453d
00000020: cd3d 183d 3183 29bd dd28 1d3d 6098 d6bc
00000030: 7c20 4e3c ed0d 183a 3ccf a03b 3099 1bbd
00000040: 79fe 143d 5f9f 89bd 90f0 d63c 6dff a0bd
00000050: 77df 803d 805b b93c aaa9 e03b 46c9 343c
00000060: 299a e1bc 777f 05bd 52a8 31bd d7a9 3fbb
00000070: 6b81 57bc b89d 84bd 1195 7d3c 4717 d03b
00000080: 5e41 ebbc 8203 233c 4770 f43c b647 82bc
00000090: 5e08 433d 4a31 ce3c fc1b e7bc 58f2 42bd
000000a0: 257b 013d 5938 04bd f1f1 5d3d a3dd 2abd
000000b0: fd43 87bd 3604 88bc 478d 1dbd c61a 2e3d
000000c0: 00ac d6bc 8239 89bc fe3e 3a3c 1802 cf3c
000000d0: a8c1 f83b 4f96 7cbc 3d46 093d b76b 6e3d
000000e0: b709 453d da60 f0bc 910a 3ebd dac4 82bd
000000f0: 8914 603d 849d 9d3d 5912 4b3c dacb 3f3d
00000100: 4f16 62bd 4e59 4a3d fe36 1fbd bb0c ea3c
00000110: 2ca9 65bd 2537 a1bd f57d 3d3d 4770 423d
00000120: 5f8c 5a3d dfad 33bd 826c 28bd 0567 8dbd
00000130: f132 4bbd 8f30 a13c 2fe9 2cbc c7e9 00bd
00000140: 0a67 2ebd 7a85 80bd 9ff7 a73c 348f c6bb
00000150: fd25 e63c 50f5 7abd 4402 34bd 0673 103d
00000160: 58a8 09bd 3ac8 07bd b9f3 563d 8040 bd3c
00000170: 50a3 e93c 5207 27bd 42ae d9bc e079 41bd
00000180: 0fb2 45bd 5fff afbc f36c 84bd d9a7 70bc
00000190: 6707 94bd a16f bdbc c28d 2f3c 496e 05bd
000001a0: cf9e 583d 75a4 5dbc b5fd 343d 5f3d a1bd
000001b0: 52c8 7dbd cbdf a93b 4277 febb 223d 9bbd
000001c0: 5410 8a3c dc99 babc 0022 32ba 6774 15bd
000001d0: 6f9c 613d 2d0a b1bc f61c 47bc bd87 043d
000001e0: 2aee 753d 33ef 7fbd 333d 263d 55d3 28bb
000001f0: 102a 383d af9d 4b3b bc27 bebb 8a48 743d
00000200: d9c4 2a3d ccfc 603d 116c 9ebd f04a 8ebd
00000210: 408b 9dbc c131 ce3b 4fa8 403c 8ce5 6abd
00000220: 24f4 593d cb15 04bd c312 cdbc ca1b 2d3d
00000230: 0f28 663d bfda a73b f205 17bd f670 06bd
00000240: 5f8f 20bd 4ce8 21bb 29ff 1e3b b07f 9bbd
00000250: 26bc 223d fa37 c23c 321b 333d 64a7 053c
00000260: ca8d 92bc 2661 50bd d405 8abc d561 fd3c
00000270: 9cc4 593d 500d 30bc 0416 c1bb aad2 433d
00000280: 712a f1bb f35b babc cf96 573d 8b69 6abb
00000290: f6ba 4dbd 8e25 563d 32b9 d53b 1f23 393c
000002a0: c702 bb3c bb4c ffbc d825 26bd 1f37 093d
000002b0: 2d65 293d 45b6 163d 604c 303c 128b 73bd
000002c0: d489 5fbd 7e6d 073d 8eab 8abb b7c6 313d
000002d0: e64e efbc df12 063c beac 02bc 3f8d 91bd
000002e0: 2223 773d ba42 8abd 84bf 053d acf8 97bd
000002f0: 4916 fcbc 8749 55bb 89aa 20bc 9aa2 77bd
00000300: 85de a5bc 34cb 3d3d aa29 39bd d006 223b
00000310: c1a2 59bd 593f 9cbb 7010 db3b 4834 48bd
00000320: 659b 353d 3efd d63c 2cfc a3bc 40db b33a
00000330: a605 bbbd dced 0cbc 62fa a0bd 6206 1bbd
00000340: 7ccd 493c 1ff1 143c c625 a73d e391 e43c
00000350: fd2f 87bd 3e76 1ebd 62c4 873c 932f d03c
00000360: d96c 04bd dc83 53bd ddfc f8bc 9dc4 67bd
00000370: a00c a83d 47e8 023d df58 bfbc 1e88 b6bd
00000380: 5b5e 69bd a847 dfbc 5393 92bd 993d 37bc
00000390: 46d2 17bb 777d 51bd 22e5 663d 0ff9 053d
000003a0: c0c0 4dbd 7d1d b43b ee3e 9f3c 4457 ee3c
000003b0: 8c5f e53c a3f9 a23c 9f0b b63c 254f 39bd
000003c0: 361f 43bc e14d 55bd 692d 4ebc 357f 7ebd
000003d0: 0493 92bd 5540 04bd ee0b 503d 0fe1 8abd
000003e0: 31b5 de3b 9be5 953b 2f26 8d3d 8ec8 643d
000003f0: 6091 cdbc 1984 143d d8b5 34bd b1c8 903d

conv2.0.bias f4 [16]
-0.0039288215 -0.050350256 -0.048949007 0.06614175 -0.036710624 -0.045371987 -0.006856787 0.008817075
0.051059157 -0.04679649 -0.009663029 0.056445505 -0.05468876 0.016426677 -0.05318479 -0.037369363
00000000: 58bd 80bb 123c 4ebd c17e 48bd 5375 873d
00000010: e15d 16bd fad7 39bd e6ae e0bb 7e75 103c
00000020: 6823 513d adad 3fbd ae51 1ebc 6733 673d
00000030: 5201 60bd 3d91 863c 4bd8 59bd 9e10 19bd

conv2.1.weight f4 [16]
0.8565159 0.9379422 0.8682995 0.95200694 0.9344544 0.9446314 0.9315734 0.92995447
0.92909414 0.95325816 0.9481346 0.93893456 0.9426572 0.92245644 0.94360274 0.8288881
00000000: a044 5b3f fb1c 703f e048 5e3f bab6 733f
00000010: 6738 6f3f 5dd3 713f 987b 6e3f 7f11 6e3f
00000020: 1dd9 6d3f ba08 743f f3b8 723f 045e 703f
00000030: fb51 713f 1b26 6c3f f38f 713f 0332 543f

conv2.1.bias f4 [16]
-0.12020396 -0.0866192 -0.11862057 -0.097863354 -0.089093216 -0.095491 -0.08769455 -0.09135123
-0.10166156 -0.09564566 -0.08706683 -0.07967804 -0.064333975 -0.09911645 -0.07011444 -0.12881999
00000000: 7e2d f6bd 6865 b1bd 57ef f2bd 956c c8bd
00000010: 8176 b6bd c990 c3bd 3399 b3bd 5b16 bbbd
00000020: f033 d0bd dfe1 c3bd 1850 b2bd 3e2e a3bd
00000030: 88c1 83bd 91fd cabd 2998 8fbd 63e9 03be

conv2.1.running_mean f4 [16]
-0.44706696 0.108314164 -1.1036142 -0.037526138 0.41052765 0.18402869 -0.6124259 -0.52383244
-0.794301 -0.5646813 -0.23857304 0.46447235 -1.15607 -0.5906917 0.57069856 0.4299528
00000000: f6e5 e4be d1d3 dd3d 3b43 8dbf 02b5 19bd
00000010: ae30 d23e 0472 3c3e f2c7 1cbf e219 06bf
00000020: 4f57 4bbf f48e 10bf 7e4c 74be 52cf ed3e
00000030: 1afa 93bf 9237 17bf 4d19 123f c622 dc3e

conv2.1.running_var f4 [16]
0.4974999 0.3618948 0.44646508 0.33832008 0.5278908 0.26210472 1.041929 2.3856676
0.51237315 0.17744707 0.14178663 0.76139516 0.26337534 0.15101849 0.27408955 0.98914844
00000000: 4fb8 fe3e 464a b93e 1297 e43e 4a38 ad3e
00000010: da23 073f 9732 863e ee5d 853f c7ae 1840
00000020: e32a 033f afb4 353e 8430 113e cbea 423f
00000030: 22d9 863e 97a4 1a3e 7755 8c3e d538 7d3f

fc1.weight f4 [3, 65536]
-0.0008197325 -7.8155856e-05 0.00030596135 6.93932e-05 0.0032442457 0.0036882197 0.0009587239 0.001553053
0.001235303 -0.0032659941 0.00023637225 0.0037962333 0.0021675692 -0.0017607602 -0.0027766216 -0.0007764727
0.00095089816 0.0011930324 0.0026019758 0.0005213801 -0.00211997 0.00063552975 0.0038536803 -0.002763469
0.0008718356 0.0015833201 -0.0014358326 -0.00074233406 0.001963609 -0.0037547492 0.0034484603 -0.0006028229
0.0020670588 0.003061903 0.00085753395 -0.003898081 0.0020436654 0.0010129727 -0.0037722723 0.0006539974
0.001466606 -0.0014395271 -0.0021164597 0.00036287901 -0.0017529527 0.0002930405 -0.0035553596 0.0009330726
-0.0030218954 0.0023793615 -0.00025819283 0.0018022152 0.003357371 0.0029543145 -0.0026931202 -0.001599221
0.0019057099 0.0003580415 -0.0016029666 0.0019210243 -0.003759263 -0.0032189582 0.0038908552 -0.0013421891
-0.0003912069 -0.004195721 -0.0038084416 -0.0020950516 0.0013947478 -0.0034703305 0.0018597998 0.0015099712
-0.002309207 0.0011548126 0.0021150801 -0.003341123 -0.0037423496 -0.0013795178 0.0020281824 0.0027092379
0.0025046582 0.0035560152 -0.0021388724 0.002562689 0.0013674529 0.0036121942 0.00065567053 0.00050972245
0.00083512935 -0.0025259065 -7.9308345e-05 0.0029406892 0.0030121824 0.0010460261 -0.0019828465 0.0020394325
-0.00405792 0.0013024568 0.00077887124 0.0011479754 0.0007221082 0.0030269064 0.0022941867 0.0016577828
-0.0006825787 -0.0029255599 -0.0014676786 -0.0016440911 -0.00145143 -0.0013965577 -0.00032874942 -0.0038934944
-0.00061803765 -0.004375972 -0.0026218526 -0.0014883582 -0.0021747537 -0.0007064105 0.0010858186 0.00030597407
0.0011177361 -0.0025260325 -0.0029971288 0.0025591543 -0.0008229317 0.0027381899 0.000848984 -0.0020037314
0.002521713 -0.003587897 -2.8179826e-05 -0.0027988276 -9.577687e-05 -0.001004895 0.00034148758 -0.0025160285
0.0019749552 0.0026243862 0.002673249 -0.0031486016 -0.00032024653 0.00043871038 -0.002223396 0.0029697414
-0.0018969089 -0.0011170452 0.0014913868 0.001819604 -0.0035672048 -0.0011666644 -0.004529192 0.00265441
0.0013233708 -0.00030878113 -0.0025985378 -0.0035111867 -0.004577849 0.00066437427 -0.0032989208 -0.0024140524
-0.0007453513 -0.004053095 -0.00016579703 -0.0022697088 -0.0018745251 -0.004072462 -0.0034752886 -0.0011425037
0.0021504406 0.0013930113 0.0011378849 -0.004770204 -0.0011732605 0.0009987019 0.0026479915 -0.0041355803
-0.004242713 0.002008453 -0.001992956 0.001957918 -0.00239766 -0.0022553138 -0.0013962444 -0.00427662
-0.0015367493 -0.004233465 -0.004378519 0.00034065437 -0.002096325 0.0012252225 0.0013465125 0.0004155363
0.0023398087 -0.0016227051 -0.001987386 0.0001136774 -0.004323413 -0.0011602363 0.0016431124 0.0011228555
0.00071898056 0.0031343913 -0.001197372 0.0031701922 -0.0025855764 -0.0028783588 0.0016860451 -0.00408788
0.0021526455 -0.0020800892 -3.9766488e-05 -0.00013603446 0.002475753 0.0017970946 0.0017971712 -0.002071633
-0.0032835992 -0.0024027557 0.0019624638 -0.00318774 0.0028191626 -0.0048124553 0.00012562184 -0.0040946226
-0.00040450375 -0.0044048806 -0.0014090922 -0.0011059253 0.0007051859 -0.0006392104 -0.0009069086 0.0026104979
-0.0039002749 -0.0006239311 -0.00060932693 -0.00065794337 -0.0043413634 -0.0024910048 -0.0051273718 -0.0025447642
-0.002535996 -0.0024866257 0.0001565267 -0.0024521656 0.0016067892 -0.0027013903 0.0016735413 -0.003741423
0.0029017576 -0.0031100744 -0.0019366317 -8.471572e-05 0.0026558493 0.0030082648 -0.0017493872 -0.0042948
00000000: 51e3 56ba 9be7 a3b8 7069 a039 3187 9138
00000010: 699d 543b 0fb6 713b df52 7b3a d08f cb3a
00000020: e4e9 a13a 4a0a 56bb b1da 7739 3aca 783b
00000030: c70d 0e3b 4fc9 e6ba fbf7 35bb 338c 4bba
00000040: b245 793a 865f 9c3a e985 2a3b 3aad 083a
00000050: 32ef 0abb ae99 263a 078e 7c3b 511b 35bb
00000060: e68b 643a 6887 cf3a 8c32 bcba 3299 42ba
00000070: e4af 003b 3d12 76bb 90ff 613b c306 1eba
00000080: 7e77 073b 35aa 483b 21cc 603a f276 7fbb
00000090: 04ef 053b b9c5 843a 3a38 77bb 0671 2b3a
000000a0: 223b c03a 84ae bcba 4db4 0abb cc40 be39
000000b0: 55c3 e5ba 3ba3 9939 0901 69bb 7199 743a
000000c0: fe0a 46bb 10ef 1b3b 0e5e 87b9 4f38 ec3a
000000d0: 5707 5c3b 2c9d 413b 0f7f 30bb f49c d1ba
000000e0: 03c9 f93a 84b7 bb39 a21a d2ba e1ca fb3a
000000f0: f85d 76bb 28f5 52bb b8fd 7e3b 65ec afba
00000100: e71a cdb9 427c 89bb 0c97 79bb 224d 09bb
00000110: f8cf b63a 7c6e 63bb 87c4 f33a 3aea c53a
00000120: 1156 17bb 155d 973a 289d 0a3b bef6 5abb
00000130: 3542 75bb f0d0 b4ba 41eb 043b 788d 313b
00000140: 3125 243b 090c 693b 532c 0cbb c9f2 273b
00000150: 1b3c b33a 90ba 6c3b 4ee1 2b3a e59e 053a
00000160: 95ec 5a3a ae89 25bb 5852 a6b8 94b8 403b
00000170: 0968 453b d01a 893a a5f2 01bb 00a8 053b
00000180: 4df8 84bb 33b7 aa3a 2a2d 4c3a aa77 963a
00000190: dc4b 3d3a 105f 463b 115a 163b f649 d93a
000001a0: 15ef 32ba c0ba 3fbb 1f5f c0ba 8b7e d7ba
000001b0: e93d beba b30c b7ba 005c acb9 ff29 7fbb
000001c0: ce03 22ba 5064 8fbb 63d3 2bbb 0415 c3ba
000001d0: 5086 0ebb 682e 39ba 0752 8e3a 256b a039
000001e0: 0081 923a cb8b 25bb 7a6b 44bb 7cb7 273b
000001f0: 03ba 57ba 3473 333b 5a8e 5e3a 0951 03bb
00000200: 5343 253b ec22 6bbb b763 ecb7 896c 37bb
00000210: d1db c8b8 aeb6 83ba b009 b339 f4e3 24bb
00000220: 406e 013b e5fd 2b3b ad31 2f3b c558 4ebb
00000230: c3e6 a7b9 b602 e639 65b6 11bb fe9f 423b
00000240: b3a1 f8ba d169 92ba a37a c33a c77f ee3a
00000250: c4c7 69bb c3ea 98ba 9e69 94bb 9cf5 2d3b
00000260: f574 ad3a e7e3 a1b9 3b4c 2abb f01b 66bb
00000270: c801 96bb 6729 2e3a b532 58bb 1435 1ebb
00000280: ae63 43ba d3cf 84bb cdd9 2db9 65bf 14bb
00000290: a0b2 f5ba 4a72 85bb abc1 63bb 10c0 95ba
000002a0: 68ee 0c3b b495 b63a 1525 953a 5f4f 9cbb
000002b0: 17c8 99ba e0e6 823a ed89 2d3b c383 87bb
000002c0: 7506 8bbb 40a0 033b 419c 02bb 6a50 003b
000002d0: 0f22 1dbb e3cd 13bb 3002 b7ba e422 8cbb
000002e0: c06c c9ba e1b8 8abb ae79 8fbb db99 b239
000002f0: 7f62 09bb a597 a03a 767d b03a 57dc d939
00000300: 7a57 193b f3b0 d4ba ce3e 02bb 1766 ee38
00000310: 6bab 8dbb 1213 98ba b45d d73a c72c 933a
00000320: f879 3c3a 5c6a 4d3b 23f1 9cba 00c3 4f3b
00000330: c672 29bb d9a2 3cbb 49fe dc3a 9ff3 85bb
00000340: 6613 0d3b 1b52 08bb f1ca 26b8 79a4 0eb9
00000350: 3e40 223b 7d8c eb3a 0f8f eb3a 3cc4 07bb
00000360: a731 57bb 8d77 1dbb ae9c 003b 67e9 50bb
00000370: b3c1 383b cdb1 9dbb 5bb9 0339 2f2c 86bb
00000380: 9313 d4b9 d156 90bb 4ab1 b8ba b2f4 90ba
00000390: 3adc 383a af90 27ba 9bbd 6dba e314 2b3b
000003a0: c19b 7fbb 4f8f 23ba 3dbb 1fba d579 2cba
000003b0: ff41 8ebb 2040 23bb 8303 a8bb 0fc6 26bb
000003c0: f432 26bb a8f6 22bb 5121 2439 83b4 20bb
000003d0: e69a d23a cf09 31bb ba5a db3a a932 75bb
000003e0: 6a2b 3e3b 64d2 4bbb 94d6 fdba 68a9 b1b8
000003f0: c20d 2e3b 4f26 453b b24b e5ba 65bb 8cbb

fc1.bias f4 [3]
0.0003100436 0.0049950215 -0.0047160643
00000000: 598d a239 47ad a33b 3789 9abb
